Model_Weights/linear_weights.npy (npy, 464 bytes, 1 tensors)

array f8 [14, 3]
00000000: cead 989e 3fef f4bf 09da 2d00 484e cb3f
00000010: ec69 9529 9fe1 0040 cee9 4d4e 913c ab3f
00000020: 9f04 e63b a739 c0bf 6d63 b7b7 fbaf b23f
00000030: 7cc0 6e1f e168 ba3f 7b9c a88f 8f00 e73f
00000040: 39ef b3f2 8c6a eabf 461b 012f df2d d03f
00000050: 6397 9327 f5a9 d5bf df63 30e4 25a7 b53f
00000060: 7d8b 90e1 1e5c e93f f100 6322 fd6f d3bf
00000070: dec2 8390 ff69 dfbf 5d7c c9e4 35ea b73f
00000080: 9eb1 8190 4e0b 9e3f dd70 fccb 6c0d c0bf
00000090: 812d 0246 036f f63f 348b b164 dedf f7bf
000000a0: 805a 4bde 52b1 b63f 29c3 112c 9a9b e6bf
000000b0: 6d50 1108 4728 9b3f ddc3 6e85 eea1 e53f
000000c0: 119d 7468 de16 e43f 14ab 4ac5 5361 a3bf
000000d0: 6128 b354 3fe7 e2bf 6904 14ab 005b e8bf
000000e0: f39d 9ce3 ce24 d73f 5d56 e9b2 0d56 d93f
000000f0: 503c 77ba d428 b43f 586b fe74 b054 dbbf
00000100: fae7 44b0 d631 d63f c7e6 298e dd4b e43f
00000110: 097a 97d1 e367 f83f fdbb f7ad ff47 01c0
00000120: 74b4 7cf1 1468 dc3f 8909 5256 b89b c0bf
00000130: 4dd8 02f0 425d d4bf a59b fe00 a52a c63f
00000140: 913f 7f04 0ce8 db3f f578 a22e a498 e3bf
-1.3084102816745715 0.2133264542460014 2.1101668595049343 0.053196469124447185 -0.12675943779689633 0.07299779162657467 0.10316283242605268 0.7188184552986877
-0.8255066623964701 0.2527997931505762 -0.3384983908166445 0.0845817262746915 0.7924951940116071 -0.3037102542694035 -0.4908446227337161 0.09341751895543511
0.029340007371887127 -0.12540969810732508 1.4021027311999605 -1.4921554501858738 0.0886432450018706 -0.7064944134454879 0.026520833842667835 0.6760170560938793
0.6277915992876918 -0.03785192283006303 -0.5907284406942034 -0.761108717095465 0.36162159183228865 0.39587728950332296 0.07874803116213624 -0.4270440237539126
0.34679190839563 0.6342609192499474 1.5253637492347727 -2.1601556388118284 0.4438526495239963 -0.12975219931474793 -0.3181922286852384 0.1731764082771551
0.43603802146116616 -0.6123829756577651
